model_W2.npy (npy, 1728 bytes, 1 tensors)

array f8 [200]
0	0xbfcef44474ac6dc1	-0.2418294496245448
1	0x3fc515983457723c	0.16472151332608742
2	0x3fc97be646f25eac	0.1990936132831299
3	0x3fd1d42d2b142a24	0.2785752220812887
4	0x3fc543b188226e3b	0.16612834117118944
5	0xbfcbb745f39e562c	-0.21653055568155943
6	0xbfc5b6a960ba4f23	-0.169636890631062
7	0xbfd3d7ee69d9ad80	-0.3100544007963535
8	0x3fc37e39c5aaccf4	0.15228960181921247
9	0x3fc72dba4aedb927	0.18108299883483278
10	0x3fcdd3b953400e2e	0.23302380146934482
11	0x3fd3ea786b47708a	0.31118593670340344
12	0xbfc9a70d40aa9a6f	-0.20041051538028706
13	0x3fcde86fcfddce91	0.233655907151491
14	0x3fd32cb1f3b5e33b	0.2996029739365899
15	0x3fc6b645322d521c	0.17743744802523131
16	0x3fd2ed9424fefbf5	0.29575065243619686
17	0x3fd20ab15bfdbaea	0.2819026373244201
18	0x3fce97c6902b19f7	0.23900682486983246
19	0x3fcf5a6148bb8a3f	0.24494567920108243
20	0xbfc900f5246cc26e	-0.19534172323757865
21	0x3fd238b883906baf	0.2847119602972112
22	0xbfcc176fecaeb065	-0.21946524674183646
23	0xbfcedffacbd30b0e	-0.24121031715738933
24	0x3fd02f8fbef47d81	0.25290292404130105
25	0xbfcd3426b9a90b29	-0.2281540304703296
26	0xbfd9fc0e54de0fe2	-0.4060092762740607
27	0xbfca995ed4428cbf	-0.20780549396758904
28	0x3fce2d7c844bb7f4	0.2357631345725505
29	0xbfc3e1fcbe298912	-0.1553340843702889
30	0xbfd3639d1dab988b	-0.30295493981828575
31	0x3fca0c2e9fbe4113	0.20349676895103438
32	0x3fd36b5569957524	0.3034261256305675
33	0x3fc94784255a05f3	0.19749500106631465
34	0xbfc5e73214cdc3e7	-0.17111803069886308
35	0xbfc5ff9d0318cd7d	-0.17186319972243416
36	0xbfce53c0dc870542	-0.2369309498590529
37	0xbfc5e282528a5550	-0.17097500829974388
38	0x3fcdafbd303dfab1	0.2319256291920815
39	0x3fcc911e2e8695a6	0.22317864677203864
40	0xbfc2695f164ea7b5	-0.14384068097325345
41	0xbfc6f01dbb279362	-0.1792027629700455
42	0xbfcd347d3a2c301a	-0.22816434231242583
43	0xbfc9dedcf8ff310d	-0.20211374433564125
44	0x3fc4f42fb79bcb65	0.16370197739851303
45	0xbfd2f6b0e290bd5e	-0.29630682111288376
46	0x3fc6ac45ad5c6994	0.1771323296059789
47	0xbfcd64476c7da685	-0.229622772192034
48	0xbfcb4be19a27b37b	-0.21325321223357804
49	0xbfcdca597a1f3d8f	-0.23273771727552314
50	0x3fd065dd480461f1	0.25621730835840056
51	0x3fca62db59c3a2b6	0.20614187129037526
52	0xbfc83bb43c39c049	-0.18932202282622004
53	0xbfc9b4ffcb8c8797	-0.2008361572161987
54	0xbfcaec56a2cee47e	-0.21033747624986526
55	0xbfc6649219275b78	-0.1749441740818971
56	0x3fcde1f1987b340f	0.233457755521528
57	0xbfc59793aab221da	-0.16868825754887845
58	0x3fcba784551c0108	0.21604971080524416
59	0xbfcbaa8858bd2ff9	-0.21614174206695205
60	0x3fc0ed832ece67de	0.1322483042284252
61	0xbfce28111d245e91	-0.23559774325325525
62	0xbfc351b50e523917	-0.1509310073783545
63	0x3fc14a56c72e79b5	0.13508114553128583
64	0x3fc375cc5e1ab7d3	0.15203241915645424
65	0x3fc2576920e0fa69	0.14329256158267192
66	0xbfc893bb161e4854	-0.19200838642115292
67	0xbfc51c82ae128df4	-0.16493257045395604
68	0xbfcdbadcab7e4570	-0.23226507543271735
69	0x3fc572d239a19d52	0.16756656469372416
70	0x3fb862a1504e5e67	0.0952549763736613
71	0xbfd117d8c317b9ff	-0.26708048870105466
72	0x3fc4414b1792f850	0.15824259425238774
73	0xbfd08003a5ed05d4	-0.2578133697862459
74	0x3fce9f85945a1c78	0.2392432188391671
75	0xbfd3288de4c37d6f	-0.2993502363223887
76	0x3fcd78d5b5a46629	0.23025008553740747
77	0x3fd06377a92b26ee	0.2560710098301645
78	0xbfc473861c20e743	-0.15977550862754172
79	0x3fcd5e76f502d582	0.22944533313208743
80	0x3fcd307ae363e84f	0.22804199317016802
81	0x3fd072325338adb3	0.256970006247424
82	0xbfca26ababe9faef	-0.20430513281095083
83	0x3fc466a7b1d4a02a	0.15938278372891662
84	0x3fcb43bb22fed3ed	0.2130044861675339
85	0x3fc9c6d39c328e7d	0.20138020636396795
86	0x3fd06945b1acde07	0.25642530776119127
87	0xbfd0b5a6da22933c	-0.26108714391948573
88	0xbfd03bd183a1ffd7	-0.2536510262943898
89	0xbfced897478a514a	-0.2409848307912717
90	0x3fd2f4b50ac39abe	0.296185741912648
91	0xbfcb628367a8f927	-0.2139438873436543
92	0x3fcd462e52e45866	0.2287042526956526
93	0x3fcb7a8e36c6af40	0.21467759775748085
94	0xbfca0738f087deaf	-0.20334541077294463
95	0xbfc3c91ac9c44f6e	-0.15457472659965837
96	0x3fcba0b6bb96a59f	0.2158420959433842
97	0x3fcd703d2cb07e1c	0.22998776132679744
98	0xbfc8ec287dc7311f	-0.19470697537907086
99	0xbfc793b7ed4e4c6c	-0.18419550978851207
100	0xbfc9185972fdb2ef	-0.1960555850486325
101	0xbfcebe2fc550c96b	-0.2401790345625828
102	0xbfc99a3deff3db5b	-0.2000195905345333
103	0xbfc202190dd6944b	-0.14068902183240292
104	0xbfc41f67386648bc	-0.15720834974178455
105	0x3fcfd7f0163a0fa3	0.248777399876528
106	0x3fcb5e0831d58c1a	0.2138071292239097
107	0x3fc3a7479f62c01e	0.15354247362620382
108	0xbfc6daa9fd660878	-0.17854809639908686
109	0xbfcc1be4ce6cb880	-0.21960125045137957
110	0xbfc0f25c30c40072	-0.13239624386915555
111	0x3fcb9c7b9fd48ee3	0.21571297935690045
112	0x3fc40f9d059103ea	0.15672648212242218
113	0xbfc9493e36ddd8ef	-0.19754769972832473
114	0x3fd4b0e0894c2dca	0.32329572113004856
115	0xbfce20d783c4b9f1	-0.23537725385672517
116	0x3fcce133b52b6a63	0.22562261911555756
117	0x3fcf9c86b80a9c56	0.2469643019332774
118	0xbfc63db6c69c10e3	-0.17375836084114046
119	0xbfca044c6566e165	-0.20325617743743432
120	0xbfcd4860fdd722c2	-0.22877132792043225
121	0xbfca914ba3279f19	-0.20755906549970218
122	0xbfc6265b36d50091	-0.1730455415472574
123	0x3fbc33025b2e622b	0.11015333868125114
124	0xbfcec2bcc6435f96	-0.2403179138261719
125	0x3fcf55844c13a035	0.24479726519280268
126	0xbfcef4f25807a265	-0.24185017870265138
127	0x3fc07da57cba21fb	0.12883442487897398
128	0xbfc94bb77d93ddd6	-0.1976231921359914
129	0xbfd03c9e8e08d129	-0.2536999117903798
130	0xbfc216d9a0afd4cc	-0.14132232996022365
131	0xbfcee0aba3aff562	-0.2412313985113697
132	0xbfcfd7e76d399083	-0.24877636750455076
133	0x3fd666371871cb81	0.34998872172507595
134	0xbfcdb614ff04417f	-0.23211920215591061
135	0xbfc618e20430978f	-0.172634365125472
136	0x3fc3517f9dc03597	0.1509246368663468
137	0x3fc7cc835b81b392	0.18592874496553385
138	0x3fd31a202eeb0a1e	0.2984695871529385
139	0xbfce1ae86f27fa2b	-0.2351961653475468
140	0x3fc1fa5739f5c84f	0.14045229272920998
141	0x3fc5795a1f8b0c3f	0.16776587047761102
142	0xbfc6c9273510807f	-0.17801370707548256
143	0xbfc50f2d127b7d3d	-0.16452563669643352
144	0xbfc4a3b0a6837203	-0.16124542360820734
145	0x3fce07116a9fae71	0.2345906992553526
146	0xbfd42b72a5160799	-0.3151518451851359
147	0xbfc8f4c27096066d	-0.1949694680916311
148	0x3fc9ed394650f3c0	0.2025519936886706
149	0xbfd007cfae7a393d	-0.2504767612343988
150	0xbfcf6de029c619e2	-0.24554063834894096
151	0xbfcea374f7bf26ad	-0.23936330887800264
152	0xbfcd4d228395e308	-0.22891646790574094
153	0xbfca95a499cb8a9d	-0.20769174108052804
154	0x3fc1790cab7165c5	0.13650663729894866
155	0x3fc61bc19ad3b6a7	0.17272205409920113
156	0xbfc7a11456ec533b	-0.1846032547406596
157	0x3fc693a04ff2ffbc	0.17638019469995736
158	0x3fc6a64f2029d6f6	0.17695035047989166
159	0x3fcc08f3944d7aa8	0.21902317754116507
160	0x3fc4da3631000f7b	0.16290929215039882
161	0xbfcf948bbd340b12	-0.24672075975839697
162	0xbfca9a08fb5389c7	-0.2078257777385046
163	0xbfc482e82fd8e0eb	-0.16024496399200613
164	0x3fc3e49f5f2c157c	0.15541450640754906
165	0xbfd089ed15e0140c	-0.2584183419824633
166	0xbfcabf8f53a952dd	-0.2089709433081656
167	0x3fd010967aacb3b1	0.25101243953650526
168	0x3fc9372e692228c8	0.1969964993807649
169	0xbfc90b356d1634e6	-0.19565456224919514
170	0xbfca846dd77db9a5	-0.20716641447093057
171	0x3fca05d2f61bd2ae	0.20330273644471702
172	0xbfd12d2128cafbff	-0.26837948783571614
173	0xbfd00be21c33c750	-0.25072529558302836
174	0xbfc6789aaed1a4c9	-0.17555554901199447
175	0x3fc3c9b7bb756f7c	0.15459343579538742
176	0xbfc8ec778d7dbc7b	-0.19471640022991096
177	0x3fd051a7ab4c426d	0.2549838230925506
178	0x3fc8cb75cca20117	0.19370911113583908
179	0x3fcb23d48c87a3a2	0.21203095304306624
180	0xbfcf075ac24f1ba8	-0.24241194236512098
181	0xbfcc261486dc64fa	-0.21991211495404867
182	0x3fc61a22fba539d8	0.1726726273286221
183	0x3fd0ea7d9021f28b	0.2643121631188385
184	0xbfc621d6e6c91cec	-0.17290769833400732
185	0xbfc4d95d90c1beac	-0.16288346832469836
186	0x3fbed0288b0d2b65	0.12036374468622808
187	0x3fc3f57cb13e0e2d	0.15592917112745522
188	0x3fcc2f7a59b3422a	0.220198911475124
189	0xbfcb21423e1a20ef	-0.2119524768097629
190	0xbfd1af49ecf6c16e	-0.2763237775898436
191	0xbfd3df554a2bbac9	-0.3105061744999316
192	0xbfca2a9bbf20de0f	-0.20442530472222173
193	0xbfd1d55ad6fa70b7	-0.2786471461674966
194	0x3fc0f7c0b69b37f0	0.13256081501316386
195	0x3fcc1348f4b8b64c	0.2193385310105661
196	0xbfc8cc50424d7301	-0.19373515355518836
197	0xbfc7fa9aaa090a27	-0.1873353319407027
198	0x3fcb0e3d9929e100	0.21137208918276684
199	0x3fc4bbdfae07a5b1	0.16198345181991905
